…
/home/paperspace/.local/lib/python3.8/site-packages/dora/hydra.py:228: UserWarning: 
The version_base parameter is not specified.
Please specify a compatability version level, or None.
Will assume defaults for version 1.1
  return hydra.main(
[[36m08-24 10:06:21[0m][[34mdemucs.train[0m][[32mINFO[0m] - For logs, checkpoints and samples check /home/paperspace/Source_Sep_Rea/Facebook_Transformers/demucs-main/demucs-main/outputs/xps/22d99e8f[0m
[[36m08-24 10:06:21[0m][[34mdora.distrib[0m][[32mINFO[0m] - world_size is 1, skipping init.[0m
GlobalSelfAttn: AttentionLayer(
  (inner_attention): PerformerAttention(
    (kernel_fn): ReLU()
  )
  (query_projection): Linear(in_features=100, out_features=240, bias=True)
  (key_projection): Linear(in_features=100, out_features=240, bias=True)
  (value_projection): Linear(in_features=100, out_features=240, bias=True)
  (out_projection): Linear(in_features=240, out_features=100, bias=True)
  (dropout_qkv): Dropout(p=0.0, inplace=False)
)
GlobalCrossAttn: AttentionLayer(
  (inner_attention): PerformerAttention(
    (kernel_fn): ReLU()
  )
  (query_projection): Linear(in_features=100, out_features=240, bias=True)
  (key_projection): Linear(in_features=100, out_features=240, bias=True)
  (value_projection): Linear(in_features=100, out_features=240, bias=True)
  (out_projection): Linear(in_features=240, out_features=100, bias=True)
  (dropout_qkv): Dropout(p=0.0, inplace=False)
)
LocalSelfAttn: None
LocalCrossAttn: None
Using Embedding: temporal
Time Emb Dim: 6
Space Embedding: True
Time Embedding: True
Val Embedding: True
Given Embedding: True
Null Value: None
Pad Value: None
Reconstruction Dropout: Timesteps 0.05, Standard 0.2, Seq (max len = 5) 0.1, Skip All Drop 1.0
D_Model = 100
e_layers=3
e_layers=4
GlobalSelfAttn: AttentionLayer(
  (inner_attention): PerformerAttention(
    (kernel_fn): ReLU()
  )
  (query_projection): Linear(in_features=100, out_features=240, bias=True)
  (key_projection): Linear(in_features=100, out_features=240, bias=True)
  (value_projection): Linear(in_features=100, out_features=240, bias=True)
  (out_projection): Linear(in_features=240, out_features=100, bias=True)
  (dropout_qkv): Dropout(p=0.0, inplace=False)
)
GlobalCrossAttn: AttentionLayer(
  (inner_attention): PerformerAttention(
    (kernel_fn): ReLU()
  )
  (query_projection): Linear(in_features=100, out_features=240, bias=True)
  (key_projection): Linear(in_features=100, out_features=240, bias=True)
  (value_projection): Linear(in_features=100, out_features=240, bias=True)
  (out_projection): Linear(in_features=240, out_features=100, bias=True)
  (dropout_qkv): Dropout(p=0.0, inplace=False)
)
LocalSelfAttn: None
LocalCrossAttn: None
Using Embedding: temporal
Time Emb Dim: 6
Space Embedding: True
Time Embedding: True
Val Embedding: True
Given Embedding: True
Null Value: None
Pad Value: None
Reconstruction Dropout: Timesteps 0.05, Standard 0.2, Seq (max len = 5) 0.1, Skip All Drop 1.0
D_Model = 100
e_layers=3
e_layers=4
GlobalSelfAttn: AttentionLayer(
  (inner_attention): PerformerAttention(
    (kernel_fn): ReLU()
  )
  (query_projection): Linear(in_features=100, out_features=240, bias=True)
  (key_projection): Linear(in_features=100, out_features=240, bias=True)
  (value_projection): Linear(in_features=100, out_features=240, bias=True)
  (out_projection): Linear(in_features=240, out_features=100, bias=True)
  (dropout_qkv): Dropout(p=0.0, inplace=False)
)
GlobalCrossAttn: AttentionLayer(
  (inner_attention): PerformerAttention(
    (kernel_fn): ReLU()
  )
  (query_projection): Linear(in_features=100, out_features=240, bias=True)
  (key_projection): Linear(in_features=100, out_features=240, bias=True)
  (value_projection): Linear(in_features=100, out_features=240, bias=True)
  (out_projection): Linear(in_features=240, out_features=100, bias=True)
  (dropout_qkv): Dropout(p=0.0, inplace=False)
)
LocalSelfAttn: None
LocalCrossAttn: None
Using Embedding: temporal
Time Emb Dim: 6
Space Embedding: True
Time Embedding: True
Val Embedding: True
Given Embedding: True
Null Value: None
Pad Value: None
Reconstruction Dropout: Timesteps 0.05, Standard 0.2, Seq (max len = 5) 0.1, Skip All Drop 1.0
D_Model = 100
e_layers=3
e_layers=4
GlobalSelfAttn: AttentionLayer(
  (inner_attention): PerformerAttention(
    (kernel_fn): ReLU()
  )
  (query_projection): Linear(in_features=100, out_features=240, bias=True)
  (key_projection): Linear(in_features=100, out_features=240, bias=True)
  (value_projection): Linear(in_features=100, out_features=240, bias=True)
  (out_projection): Linear(in_features=240, out_features=100, bias=True)
  (dropout_qkv): Dropout(p=0.0, inplace=False)
)
GlobalCrossAttn: AttentionLayer(
  (inner_attention): PerformerAttention(
    (kernel_fn): ReLU()
  )
  (query_projection): Linear(in_features=100, out_features=240, bias=True)
  (key_projection): Linear(in_features=100, out_features=240, bias=True)
  (value_projection): Linear(in_features=100, out_features=240, bias=True)
  (out_projection): Linear(in_features=240, out_features=100, bias=True)
  (dropout_qkv): Dropout(p=0.0, inplace=False)
)
LocalSelfAttn: None
LocalCrossAttn: None
Using Embedding: temporal
Time Emb Dim: 6
Space Embedding: True
Time Embedding: True
Val Embedding: True
Given Embedding: True
Null Value: None
Pad Value: None
Reconstruction Dropout: Timesteps 0.05, Standard 0.2, Seq (max len = 5) 0.1, Skip All Drop 1.0
D_Model = 100
…
/home/paperspace/.local/lib/python3.8/site-packages/dora/hydra.py:228: UserWarning: 
The version_base parameter is not specified.
Please specify a compatability version level, or None.
Will assume defaults for version 1.1
  return hydra.main(
[[36m08-24 10:08:05[0m][[34mdemucs.train[0m][[32mINFO[0m] - For logs, checkpoints and samples check /home/paperspace/Source_Sep_Rea/Facebook_Transformers/demucs-main/demucs-main/outputs/xps/22d99e8f[0m
[[36m08-24 10:08:05[0m][[34mdora.distrib[0m][[32mINFO[0m] - world_size is 1, skipping init.[0m
GlobalSelfAttn: AttentionLayer(
  (inner_attention): PerformerAttention(
    (kernel_fn): ReLU()
  )
  (query_projection): Linear(in_features=100, out_features=240, bias=True)
  (key_projection): Linear(in_features=100, out_features=240, bias=True)
  (value_projection): Linear(in_features=100, out_features=240, bias=True)
  (out_projection): Linear(in_features=240, out_features=100, bias=True)
  (dropout_qkv): Dropout(p=0.0, inplace=False)
)
GlobalCrossAttn: AttentionLayer(
  (inner_attention): PerformerAttention(
    (kernel_fn): ReLU()
  )
  (query_projection): Linear(in_features=100, out_features=240, bias=True)
  (key_projection): Linear(in_features=100, out_features=240, bias=True)
  (value_projection): Linear(in_features=100, out_features=240, bias=True)
  (out_projection): Linear(in_features=240, out_features=100, bias=True)
  (dropout_qkv): Dropout(p=0.0, inplace=False)
)
LocalSelfAttn: None
LocalCrossAttn: None
Using Embedding: temporal
Time Emb Dim: 6
Space Embedding: True
Time Embedding: True
Val Embedding: True
Given Embedding: True
Null Value: None
Pad Value: None
Reconstruction Dropout: Timesteps 0.05, Standard 0.2, Seq (max len = 5) 0.1, Skip All Drop 1.0
/home/paperspace/.local/lib/python3.8/site-packages/hydra/_internal/hydra.py:119: UserWarning: Future Hydra versions will no longer change working directory at job runtime by default.
…
[[36m09-20 15:55:33[0m][[34mdemucs.train[0m][[32mINFO[0m] - For logs, checkpoints and samples check /home/paperspace/Source_Sep_Rea/Facebook_Transformers/demucs-main/demucs-main/outputs/xps/538354e6[0m
[[36m09-20 15:55:33[0m][[34mdora.distrib[0m][[32mINFO[0m] - world_size is 1, skipping init.[0m
[[36m09-20 15:55:33[0m][[34mdemucs.train[0m][[32mINFO[0m] - For logs, checkpoints and samples check /home/paperspace/Source_Sep_Rea/Facebook_Transformers/demucs-main/demucs-main/outputs/xps/538354e6[0m
[[36m09-20 15:55:33[0m][[34mdora.distrib[0m][[32mINFO[0m] - world_size is 1, skipping init.[0m
GlobalSelfAttn: AttentionLayer(
  (inner_attention): PerformerAttention(
    (kernel_fn): ReLU()
  )
  (query_projection): Linear(in_features=100, out_features=240, bias=True)
  (key_projection): Linear(in_features=100, out_features=240, bias=True)
  (value_projection): Linear(in_features=100, out_features=240, bias=True)
  (out_projection): Linear(in_features=240, out_features=100, bias=True)
  (dropout_qkv): Dropout(p=0.0, inplace=False)
)
GlobalCrossAttn: AttentionLayer(
  (inner_attention): PerformerAttention(
    (kernel_fn): ReLU()
  )
  (query_projection): Linear(in_features=100, out_features=240, bias=True)
  (key_projection): Linear(in_features=100, out_features=240, bias=True)
  (value_projection): Linear(in_features=100, out_features=240, bias=True)
  (out_projection): Linear(in_features=240, out_features=100, bias=True)
  (dropout_qkv): Dropout(p=0.0, inplace=False)
)
LocalSelfAttn: None
LocalCrossAttn: None
Using Embedding: temporal
Time Emb Dim: 6
Space Embedding: True
Time Embedding: True
Val Embedding: True
Given Embedding: True
Null Value: None
Pad Value: None
Reconstruction Dropout: Timesteps 0.05, Standard 0.2, Seq (max len = 5) 0.1, Skip All Drop 1.0
D_Model = 100
GlobalSelfAttn: AttentionLayer(
  (inner_attention): PerformerAttention(
    (kernel_fn): ReLU()
  )
  (query_projection): Linear(in_features=100, out_features=240, bias=True)
  (key_projection): Linear(in_features=100, out_features=240, bias=True)
  (value_projection): Linear(in_features=100, out_features=240, bias=True)
  (out_projection): Linear(in_features=240, out_features=100, bias=True)
  (dropout_qkv): Dropout(p=0.0, inplace=False)
)
GlobalCrossAttn: AttentionLayer(
  (inner_attention): PerformerAttention(
    (kernel_fn): ReLU()
  )
  (query_projection): Linear(in_features=100, out_features=240, bias=True)
  (key_projection): Linear(in_features=100, out_features=240, bias=True)
  (value_projection): Linear(in_features=100, out_features=240, bias=True)
  (out_projection): Linear(in_features=240, out_features=100, bias=True)
  (dropout_qkv): Dropout(p=0.0, inplace=False)
)
LocalSelfAttn: None
LocalCrossAttn: None
Using Embedding: temporal
Time Emb Dim: 6
Space Embedding: True
Time Embedding: True
Val Embedding: True
Given Embedding: True
Null Value: None
Pad Value: None
Reconstruction Dropout: Timesteps 0.05, Standard 0.2, Seq (max len = 5) 0.1, Skip All Drop 1.0
D_Model = 100
GlobalSelfAttn: AttentionLayer(
  (inner_attention): PerformerAttention(
    (kernel_fn): ReLU()
  )
  (query_projection): Linear(in_features=100, out_features=240, bias=True)
  (key_projection): Linear(in_features=100, out_features=240, bias=True)
  (value_projection): Linear(in_features=100, out_features=240, bias=True)
  (out_projection): Linear(in_features=240, out_features=100, bias=True)
  (dropout_qkv): Dropout(p=0.0, inplace=False)
)
GlobalCrossAttn: AttentionLayer(
  (inner_attention): PerformerAttention(
    (kernel_fn): ReLU()
  )
  (query_projection): Linear(in_features=100, out_features=240, bias=True)
  (key_projection): Linear(in_features=100, out_features=240, bias=True)
  (value_projection): Linear(in_features=100, out_features=240, bias=True)
  (out_projection): Linear(in_features=240, out_features=100, bias=True)
  (dropout_qkv): Dropout(p=0.0, inplace=False)
)
LocalSelfAttn: None
LocalCrossAttn: None
Using Embedding: temporal
Time Emb Dim: 6
Space Embedding: True
Time Embedding: True
Val Embedding: True
Given Embedding: True
Null Value: None
Pad Value: None
Reconstruction Dropout: Timesteps 0.05, Standard 0.2, Seq (max len = 5) 0.1, Skip All Drop 1.0
D_Model = 100
GlobalSelfAttn: AttentionLayer(
  (inner_attention): PerformerAttention(
    (kernel_fn): ReLU()
  )
  (query_projection): Linear(in_features=100, out_features=240, bias=True)
  (key_projection): Linear(in_features=100, out_features=240, bias=True)
  (value_projection): Linear(in_features=100, out_features=240, bias=True)
  (out_projection): Linear(in_features=240, out_features=100, bias=True)
  (dropout_qkv): Dropout(p=0.0, inplace=False)
)
GlobalCrossAttn: AttentionLayer(
  (inner_attention): PerformerAttention(
    (kernel_fn): ReLU()
  )
  (query_projection): Linear(in_features=100, out_features=240, bias=True)
  (key_projection): Linear(in_features=100, out_features=240, bias=True)
  (value_projection): Linear(in_features=100, out_features=240, bias=True)
  (out_projection): Linear(in_features=240, out_features=100, bias=True)
  (dropout_qkv): Dropout(p=0.0, inplace=False)
)
LocalSelfAttn: None
LocalCrossAttn: None
Using Embedding: temporal
Time Emb Dim: 6
Space Embedding: True
Time Embedding: True
Val Embedding: True
Given Embedding: True
Null Value: None
Pad Value: None
Reconstruction Dropout: Timesteps 0.05, Standard 0.2, Seq (max len = 5) 0.1, Skip All Drop 1.0
D_Model = 100
/home/paperspace/.local/lib/python3.8/site-packages/musdb/configs/mus.yaml
[[36m09-20 15:55:38[0m][[34mdemucs.train[0m][[32mINFO[0m] - train/valid set size: 18626 14[0m
GlobalSelfAttn: AttentionLayer(
  (inner_attention): PerformerAttention(
    (kernel_fn): ReLU()
  )
  (query_projection): Linear(in_features=100, out_features=240, bias=True)
  (key_projection): Linear(in_features=100, out_features=240, bias=True)
  (value_projection): Linear(in_features=100, out_features=240, bias=True)
  (out_projection): Linear(in_features=240, out_features=100, bias=True)
  (dropout_qkv): Dropout(p=0.0, inplace=False)
)
GlobalCrossAttn: AttentionLayer(
  (inner_attention): PerformerAttention(
    (kernel_fn): ReLU()
  )
  (query_projection): Linear(in_features=100, out_features=240, bias=True)
  (key_projection): Linear(in_features=100, out_features=240, bias=True)
  (value_projection): Linear(in_features=100, out_features=240, bias=True)
  (out_projection): Linear(in_features=240, out_features=100, bias=True)
  (dropout_qkv): Dropout(p=0.0, inplace=False)
)
LocalSelfAttn: None
LocalCrossAttn: None
Using Embedding: temporal
Time Emb Dim: 6
Space Embedding: True
Time Embedding: True
Val Embedding: True
Given Embedding: True
Null Value: None
Pad Value: None
Reconstruction Dropout: Timesteps 0.05, Standard 0.2, Seq (max len = 5) 0.1, Skip All Drop 1.0
D_Model = 100
GlobalSelfAttn: AttentionLayer(
  (inner_attention): PerformerAttention(
    (kernel_fn): ReLU()
  )
  (query_projection): Linear(in_features=100, out_features=240, bias=True)
  (key_projection): Linear(in_features=100, out_features=240, bias=True)
  (value_projection): Linear(in_features=100, out_features=240, bias=True)
  (out_projection): Linear(in_features=240, out_features=100, bias=True)
  (dropout_qkv): Dropout(p=0.0, inplace=False)
)
GlobalCrossAttn: AttentionLayer(
  (inner_attention): PerformerAttention(
    (kernel_fn): ReLU()
  )
  (query_projection): Linear(in_features=100, out_features=240, bias=True)
  (key_projection): Linear(in_features=100, out_features=240, bias=True)
  (value_projection): Linear(in_features=100, out_features=240, bias=True)
  (out_projection): Linear(in_features=240, out_features=100, bias=True)
  (dropout_qkv): Dropout(p=0.0, inplace=False)
)
LocalSelfAttn: None
LocalCrossAttn: None
Using Embedding: temporal
Time Emb Dim: 6
Space Embedding: True
Time Embedding: True
Val Embedding: True
Given Embedding: True
Null Value: None
Pad Value: None
Reconstruction Dropout: Timesteps 0.05, Standard 0.2, Seq (max len = 5) 0.1, Skip All Drop 1.0
D_Model = 100
GlobalSelfAttn: AttentionLayer(
  (inner_attention): PerformerAttention(
    (kernel_fn): ReLU()
  )
  (query_projection): Linear(in_features=100, out_features=240, bias=True)
  (key_projection): Linear(in_features=100, out_features=240, bias=True)
  (value_projection): Linear(in_features=100, out_features=240, bias=True)
  (out_projection): Linear(in_features=240, out_features=100, bias=True)
  (dropout_qkv): Dropout(p=0.0, inplace=False)
)
GlobalCrossAttn: AttentionLayer(
  (inner_attention): PerformerAttention(
    (kernel_fn): ReLU()
  )
  (query_projection): Linear(in_features=100, out_features=240, bias=True)
  (key_projection): Linear(in_features=100, out_features=240, bias=True)
  (value_projection): Linear(in_features=100, out_features=240, bias=True)
  (out_projection): Linear(in_features=240, out_features=100, bias=True)
  (dropout_qkv): Dropout(p=0.0, inplace=False)
)
LocalSelfAttn: None
LocalCrossAttn: None
Using Embedding: temporal
Time Emb Dim: 6
Space Embedding: True
Time Embedding: True
Val Embedding: True
Given Embedding: True
Null Value: None
Pad Value: None
Reconstruction Dropout: Timesteps 0.05, Standard 0.2, Seq (max len = 5) 0.1, Skip All Drop 1.0
D_Model = 100
GlobalSelfAttn: AttentionLayer(
  (inner_attention): PerformerAttention(
    (kernel_fn): ReLU()
  )
  (query_projection): Linear(in_features=100, out_features=240, bias=True)
  (key_projection): Linear(in_features=100, out_features=240, bias=True)
  (value_projection): Linear(in_features=100, out_features=240, bias=True)
  (out_projection): Linear(in_features=240, out_features=100, bias=True)
  (dropout_qkv): Dropout(p=0.0, inplace=False)
)
GlobalCrossAttn: AttentionLayer(
  (inner_attention): PerformerAttention(
    (kernel_fn): ReLU()
  )
  (query_projection): Linear(in_features=100, out_features=240, bias=True)
  (key_projection): Linear(in_features=100, out_features=240, bias=True)
  (value_projection): Linear(in_features=100, out_features=240, bias=True)
  (out_projection): Linear(in_features=240, out_features=100, bias=True)
  (dropout_qkv): Dropout(p=0.0, inplace=False)
)
LocalSelfAttn: None
LocalCrossAttn: None
Using Embedding: temporal
Time Emb Dim: 6
Space Embedding: True
Time Embedding: True
Val Embedding: True
Given Embedding: True
Null Value: None
Pad Value: None
Reconstruction Dropout: Timesteps 0.05, Standard 0.2, Seq (max len = 5) 0.1, Skip All Drop 1.0
D_Model = 100
…
